src/LSTM_Model_Trained.pth (torch, 71151 bytes, 5 tensors)

lstm.weight_ih_l0 f4 [256, 1]
0	0x3cdf36fc	0.027247898
1	0xbc255cb4	-0.010092903
2	0xbd2feaa9	-0.0429484
3	0x3de03557	0.10947674
4	0x3d927dae	0.07152878
5	0xbd3d7e7a	-0.046263196
6	0xbd43735e	-0.047717445
7	0xbd99e07b	-0.075135194
8	0x3d50015c	0.050782546
9	0x3dd64815	0.10462967
10	0xbdf89e7c	-0.121396035
11	0xbd596205	-0.053071994
12	0xbdd0a9b7	-0.101886205
13	0x3d07d0c3	0.033158075
14	0xbd8b5539	-0.06803364
15	0xbded6b3b	-0.11592718
16	0xba81ac24	-0.0009893221
17	0xbde53581	-0.11191846
18	0x3d41c5a1	0.047307614
19	0xbdbccc63	-0.09218671
20	0xbdac36f3	-0.08408918
21	0x3dc0b5d4	0.09409681
22	0xbdbfb23f	-0.093601696
23	0x3c504978	0.012712829
24	0xbbe1b0da	-0.0068875374
25	0xbd00ec1b	-0.031475168
26	0x3dfc310d	0.12314043
27	0xbd1da1e0	-0.038484454
28	0x3d9308a3	0.07179382
29	0xba7ea822	-0.0009714385
30	0x3dac924f	0.08426344
31	0xbd8428aa	-0.064530686
32	0xbdc6842b	-0.09693178
33	0x3b27b038	0.0025587212
34	0x3ccafa9c	0.024777703
35	0x3e071463	0.1319137
36	0xbdce6b74	-0.10079089
37	0xbd844083	-0.06457617
38	0xbcb372a7	-0.021905256
39	0x3dd8b645	0.1058164
40	0x3de3e292	0.11127199
41	0x3ada6e9d	0.0016665045
42	0x3ddda6b5	0.108228125
43	0x3ded2397	0.11579054
44	0x3c927083	0.017875915
45	0x3d28ee74	0.04124303
46	0x3c40ffc4	0.011779729
47	0xbdbbbd18	-0.09166926
48	0x3dbfa187	0.09356981
49	0x3d90e115	0.07074181
50	0x3aac12f6	0.0013128209
51	0x3b98906a	0.0046558874
52	0x3cb6fda8	0.02233775
53	0xbd459288	-0.048235446
54	0xbe019421	-0.12654163
55	0xbd09e03f	-0.033661123
56	0x3bd4264c	0.006474292
57	0xbd47a585	-0.048741836
58	0x3a98f6f4	0.0011670277
59	0xbe0411c5	-0.12897404
60	0xbdda1617	-0.106487446
61	0x3c8f242c	0.017473303
62	0xbda182d2	-0.0788628
63	0xbccc5b0d	-0.02494576
64	0x3cadb6c5	0.021205315
65	0xbd8ea0fa	-0.069642976
66	0xbd027d2d	-0.03185766
67	0xbcd48ec5	-0.025946984
68	0x3d16add4	0.03678687
69	0x3da62f58	0.08114499
70	0xbdea2866	-0.11433487
71	0xbdae554f	-0.08512365
72	0xbd4b6d68	-0.049664885
73	0x3c381d1c	0.011237409
74	0xbca97665	-0.020686338
75	0x3dc0ab3e	0.09407662
76	0xbc9c1a66	-0.019055557
77	0xbd075fdf	-0.033050414
78	0xbde5f7ba	-0.11228891
79	0xbd893ea0	-0.06701398
80	0xbd0a8d54	-0.033826187
81	0x3cfc1855	0.030773321
82	0xbb871365	-0.004122185
83	0x3dfddad1	0.123952515
84	0xbd96ca8d	-0.07362852
85	0x3ca89709	0.020579832
86	0xbd6d1599	-0.057881925
87	0xbdaa7524	-0.08323124
88	0xbdb10962	-0.08644368
89	0xbda9a23f	-0.08282899
90	0xbd4649e9	-0.04841033
91	0xbc7ea9bf	-0.0155434
92	0x3c839d53	0.016066229
93	0x3da20774	0.07911578
94	0xbde98b3f	-0.11403512
95	0x3d21e0b2	0.039520927
96	0x3cf16b24	0.029470034
97	0xbcf57607	-0.029963506
98	0xbe041eae	-0.12902328
99	0xbd863fc3	-0.0655513
100	0x3cde3651	0.02712551
101	0x3d9ab676	0.07554333
102	0xbda98d91	-0.08278955
103	0xbe07eb82	-0.13273433
104	0x3d04a682	0.032385357
105	0x3dced374	0.10098925
106	0xbcb5f3d7	-0.022210998
107	0x3dd30dfd	0.103054024
108	0xbe087f6a	-0.13329855
109	0x3dd3e172	0.10345735
110	0xbc21cd4f	-0.00987561
111	0xbc850249	-0.016236441
112	0xbd0668ea	-0.032814898
113	0x3d8a25ad	0.06745467
114	0xbd12e9b9	-0.035867427
115	0xbd0933e4	-0.033496752
116	0x3e072340	0.1319704
117	0xbd38f43b	-0.04515479
118	0x3dac36bc	0.08408877
119	0xbdc17a74	-0.09447184
120	0x3e089f5d	0.13342042
121	0x3e086b38	0.1332215
122	0x3d2f7d27	0.042843964
123	0xbc4c30ae	-0.012462778
124	0xbcc3f443	-0.023920184
125	0xbcc95436	-0.024576288
126	0x3bebe5b5	0.007199014
127	0xbdc3e5d2	-0.09565319
128	0xbd94a796	-0.07258527
129	0xbdc03226	-0.09384565
130	0x3dfc4c8f	0.1231929
131	0x3d54eb82	0.05198241
132	0x3cbf32a1	0.023339571
133	0x3d323e60	0.043516517
134	0xbdbe7d54	-0.09301248
135	0x3cd7e0b2	0.02635226
136	0xbce90438	-0.028444394
137	0xbd612423	-0.054966103
138	0xbca724f6	-0.020403367
139	0xbd830945	-0.063982524
140	0x3d44e30a	0.048068084
141	0xbd9b363c	-0.07578704
142	0x3acc6b1d	0.0015595887
143	0xbcc8b901	-0.02450228
144	0xbd6517d7	-0.05593094
145	0x3daed549	0.08536775
146	0x3da9c961	0.08290363
147	0x3d442d53	0.047894787
148	0x3d8f1b89	0.06987674
149	0xbdcfa930	-0.10139692
150	0x3ddc5443	0.10758259
151	0x3dcb11a5	0.09915475
152	0x3db57796	0.088607
153	0x3cfdd606	0.030985843
154	0xbd2b0d59	-0.041760776
155	0xbdc4525b	-0.095860206
156	0xbceffb26	-0.029294562
157	0xbd0cd082	-0.034378536
158	0x3d795930	0.06087607
159	0x3cb7c6d4	0.022433676
160	0xbd003206	-0.031297706
161	0x3c11aad3	0.008890825
162	0xbdaece99	-0.08535499
163	0xbe09b65f	-0.13448475
164	0x3d5bb0d8	0.05363545
165	0xbc849ae3	-0.016187137
166	0x3b81b6b9	0.00395855
167	0x3d8ee2a6	0.069768235
168	0x3d3387b8	0.043830603
169	0x3dc903b9	0.09815163
170	0xbdab97dc	-0.08378574
171	0x3dcce7ae	0.10005127
172	0xbdc3a415	-0.095527805
173	0xbd5cff6d	-0.05395453
174	0xbd86e53d	-0.065866925
175	0x3c4ccb5f	0.012499659
176	0x3d6eeb68	0.05832997
177	0x3dbcbf7e	0.09216212
178	0xbcb15cfa	-0.02165078
179	0x3de537d1	0.11192287
180	0x3c2fdd35	0.010733892
181	0x3be7cbda	0.0070738615
182	0x3b153a6a	0.0022770413
183	0x3b3f3faf	0.0029182245
184	0xbd793752	-0.060843773
185	0x3debdcd0	0.11516726
186	0x3d1d49f4	0.038400605
187	0x3c803570	0.015650481
188	0x3cee51c5	0.029091725
189	0xba82b16b	-0.0009971088
190	0x3d928063	0.07153394
191	0x3d898b7f	0.0671606
192	0xbdbf5d5b	-0.09343978
193	0x3db38985	0.08766464
194	0xbd96def3	-0.07366743
195	0x3b2c97e4	0.002633565
196	0xbd2a66ce	-0.04160195
197	0x3b8477c6	0.0040425984
198	0x3cb64852	0.022251282
199	0x3def4cc3	0.11684563
200	0xba90b860	-0.0011041276
201	0xbda17f48	-0.07885605
202	0x3db8afc3	0.09017899
203	0x3dde72ca	0.10861738
204	0x3d993337	0.074804716
205	0xbdc861e9	-0.097843
206	0x3d1f394b	0.038873
207	0x3d87bed5	0.06628195
208	0xbe02569b	-0.1272835
209	0x3d7d9b44	0.06191565
210	0xbcef5a07	-0.029217733
211	0x3e097d46	0.13426694
212	0xbdc3aa45	-0.09553961
213	0x3d58eb67	0.052958872
214	0xbda73294	-0.08163944
215	0xbda895a1	-0.082316644
216	0xbcec7abe	-0.028867122
217	0x3dd177d6	0.10227935
218	0x3d018464	0.0316204
219	0xbd470d73	-0.04859681
220	0x3c1dcfe4	0.0096320845
221	0x3d631fd8	0.05545029
222	0xbd3f2af0	-0.046671808
223	0x3ceb2dc7	0.028708352
224	0xbcb7a67c	-0.022418253
225	0x3bc1fbff	0.005919933
226	0xbcde3882	-0.027126554
227	0xbdc8fe97	-0.09814184
228	0x3cd28aec	0.025701009
229	0x3daa32e1	0.08310486
230	0x3d0d469c	0.034491166
231	0xbc4870d6	-0.012233933
232	0xbd98bd43	-0.07457974
233	0x3ddef4e8	0.10886556
234	0x3d3a6147	0.045502927
235	0xbd28695b	-0.0411161
236	0xbd98dd32	-0.07464065
237	0x3c29d3a7	0.010365403
238	0x3d83b336	0.06430666
239	0x3c750d78	0.0149568245
240	0x3d8b78e4	0.068101674
241	0xbd5dcc8b	-0.054150146
242	0xbdd5c3ca	-0.104377344
243	0x3da98b80	0.08278561
244	0xbdbf8542	-0.09351589
245	0x3cfe6014	0.031051673
246	0x3c9d299e	0.019184884
247	0xbd385982	-0.045007236
248	0xbdd210e2	-0.102571264
249	0x3c7e7a9a	0.01553216
250	0xbd84e4b9	-0.06488938
251	0xbd817227	-0.06320601
252	0x3a8de477	0.0010825534
253	0x3d84dde7	0.06487637
254	0x3d867299	0.065648265
255	0x3d80df00	0.06292534

lstm.weight_hh_l0 f4 [256, 64]
0	0x3de28b59	0.11061735
1	0x3d9472fc	0.07248494
2	0x3da589b2	0.08082904
3	0x3d9e2bd6	0.07723205
4	0xbd1fade1	-0.038984183
5	0x3d008979	0.031381104
6	0xbd151334	-0.036395267
7	0xbd889851	-0.06669677
8	0x3d2454b8	0.040119857
9	0x3dd8b7a7	0.10581904
10	0xbdd8051e	-0.10547851
11	0xbc118694	-0.008882184
12	0xbdc14622	-0.09437205
13	0xbc660b86	-0.014040833
14	0xbd722e42	-0.059126146
15	0xbdab29f5	-0.08357612
16	0x3d51d680	0.051229954
17	0xbd917df9	-0.071041055
18	0xbdbf087f	-0.093277924
19	0x3e004665	0.12526853
20	0x3d2d52c9	0.04231528
21	0xbe05d7a8	-0.13070548
22	0xbb4fd179	-0.0031710549
23	0xbdd4659f	-0.10370945
24	0xbd84869b	-0.064709865
25	0xbdcd2de5	-0.10018519
26	0x3d4c411b	0.049866777
27	0xbd3f8f72	-0.04676766
28	0x3d6d2103	0.05789281
29	0x3cd74c3e	0.026281472
30	0xbdce9780	-0.1008749
31	0x3d83305c	0.06405708
32	0xbdcc0b2a	-0.09963067
33	0xbd9ff83b	-0.07811018
34	0xbd8532fc	-0.06503865
35	0x3da7a14e	0.08185063
36	0x3de33649	0.110943384
37	0x3d135155	0.035966236
38	0x3deb9313	0.115026616
39	0x3dcf9bb7	0.10137122
40	0xbd9c79b4	-0.076404005
41	0x3d92d964	0.0717037
42	0xbd396bda	-0.04526887
43	0xbdd566f0	-0.104200244
44	0xbd739e50	-0.05947715
45	0x3cefa434	0.029253103
46	0xbe011430	-0.12605357
47	0x3d594f10	0.053053916
48	0xbd7a2e64	-0.061079398
49	0x3dc37620	0.09544015
50	0x3bd672bf	0.0065444405
51	0xbd831179	-0.06399817
52	0x3ac66980	0.0015137643
53	0x3cedd3c6	0.029031646
54	0xbd5ef232	-0.054430194
55	0x3d9000d1	0.07031406
56	0x3d8ebba6	0.06969385
57	0xbc111500	-0.008855104
58	0xbd56ecc5	-0.052471895
59	0xbcef4b97	-0.029210849
60	0x3db0686f	0.08613669
61	0x3cb4f196	0.022087853
62	0x3be8ea22	0.007107989
63	0x3df5146e	0.11966787
64	0xbd2b5846	-0.04183223
65	0x3d9f734b	0.07785662
66	0x3d8ac95e	0.06776689
67	0x3dbeaf78	0.09310812
68	0x3d8d2955	0.06892649
69	0x3dca354e	0.09873448
70	0x3c8cefa9	0.017204123
71	0x3dcb1d92	0.099177495
72	0xbd933efe	-0.07189749
73	0x3c2fba25	0.010725533
74	0x3d1be0a1	0.03805602
75	0xbcf94b91	-0.03043154
76	0x3d42a493	0.04752023
77	0x3d7dee1e	0.061994664
78	0x3db83bfd	0.08995817
79	0x3de3a5ab	0.11115583
80	0xbc11248d	-0.008858812
81	0x3d91cbd8	0.07118958
82	0x3db696ca	0.089154795
83	0x3d3ca20a	0.04605297
84	0x3d8e1aaf	0.06938683
85	0xbdf0cf27	-0.11758261
86	0xbd1fa8f3	-0.038979482
87	0x3ca44727	0.02005346
88	0x3ba4a86d	0.0050249607
89	0x3d0bda96	0.034144007
90	0xbd87fa0a	-0.06639488
91	0x3de88cfa	0.11355014
92	0xbe038f26	-0.12847576
93	0xbdfd139b	-0.12357255
94	0x3bd80b95	0.0065931776
95	0x3d715677	0.05892035
96	0xbc808974	-0.015690543
97	0x3cea7df5	0.028624514
98	0x3d44d15b	0.04805122
99	0xbdd484a8	-0.10376865
100	0x3deebce4	0.11657122
101	0xbd3f98dc	-0.046776637
102	0x3dc23bd2	0.09484066
103	0xbd19e0d8	-0.037567943
104	0x3df3dfe3	0.119079374
105	0x3aa49e8d	0.0012559459
106	0x3d3b4e2e	0.045728855
107	0x3d745e9a	0.05966053
108	0x3c706681	0.014672876
109	0x3d4cfe14	0.050046995
110	0x3dcac662	0.0990112
111	0x3dc13bd0	0.094352365
112	0xbd20074c	-0.03906946
113	0x3d981ae2	0.074270025
114	0xbc6eb89e	-0.014570383
115	0xbb343b86	-0.00275013
116	0xbb81f168	-0.0039655454
117	0x3d2cff8d	0.0422359
118	0x3c47cc3f	0.012194692
119	0xbd4abc9f	-0.04949629
120	0xbc7ac129	-0.015304842
121	0x3dd58a16	0.104267284
122	0xbd481e54	-0.04885705
123	0xbdcdbb57	-0.10045498
124	0x3dbda148	0.092592776
125	0x3d5def53	0.054183315
126	0x3d5dc940	0.054147005
127	0xbcacdae5	-0.02110047
128	0x3da43738	0.08018345
129	0xbc6aa803	-0.014322284
130	0xbdb9f6fc	-0.09080312
131	0xbd549f71	-0.051909868
132	0x3d2a9ff3	0.041656446
133	0xbd9eb79a	-0.07749863
134	0x3de33e18	0.11095828
135	0x3dbbad7d	0.0916395
136	0x3d9372d4	0.07199636
137	0xbe095dc8	-0.13414681
138	0xbd77d3e2	-0.0605048
139	0x3d90c730	0.07069242
140	0x3bca71c4	0.0061781127
141	0x3dcd122f	0.10013234
142	0x3d9ddee5	0.077085294
143	0xbc640958	-0.013918243
144	0xbdc496f2	-0.09599103
145	0x3dc78e25	0.09743909
146	0x3b22b072	0.0024824408
147	0xbd61caec	-0.055125162
148	0x3dd2e831	0.10298193
149	0xbd371d72	-0.044705816
150	0xbddfcab3	-0.10927334
151	0xbd5f41a0	-0.054505944
152	0x3d7cf9d1	0.06176168
153	0xbdca55c5	-0.098796405
154	0x3db1f421	0.08689142
155	0xbb3b7848	-0.0028605629
156	0x3cb72fec	0.022361718
157	0x3df1b007	0.11801153
158	0xbd46f804	-0.04857637
159	0xbdc99603	-0.098430656
160	0xbd1eddf0	-0.038785875
161	0x3cb416d1	0.021983536
162	0xbdca98ea	-0.09892447
163	0x3c84ae1f	0.016196309
164	0x3df08a33	0.117451094
165	0xbd82d573	-0.063883685
166	0x3d97d098	0.07412833
167	0xbbe44a94	-0.006966898
168	0x3cd83a92	0.026395116
169	0xbda64854	-0.08119264
170	0x3c3269fe	0.010889528
171	0xbc4d4d49	-0.012530633
172	0x3db14a56	0.086567566
173	0x3d89a358	0.067206085
174	0x3c84600e	0.016159084
175	0xbdc7f3f5	-0.09763328
176	0x3d8d389b	0.06895562
177	0x3d7de5dd	0.061986793
178	0xbc3fe103	-0.011711362
179	0x3c2cb997	0.010542295
180	0xbb217662	-0.0024637212
181	0xbd62c10f	-0.055359896
182	0xbdd52fb9	-0.10409493
183	0xbd1f4462	-0.038883574
184	0xbbec6786	-0.0072144894
185	0x3d7ede43	0.062223684
186	0xbd6b6ccb	-0.0574768
187	0x3dae6cce	0.085168466
188	0x3dd3fe6a	0.1035126
189	0xbda7b5d7	-0.0818898
190	0xbdad5af0	-0.084646106
191	0xbde96e0f	-0.11397945
192	0xbdb49b2b	-0.088186584
193	0xbde3122b	-0.1108745
194	0xbcc1714c	-0.023613594
195	0x3dae1bfb	0.085014306
196	0x3d953dfe	0.07287215
197	0x3dab32e4	0.08359316
198	0x3d414622	0.047186024
199	0x3cbc36aa	0.022975285
200	0x3d8610bc	0.065461606
201	0xbdb48cd9	-0.08815927
202	0xbd1aa9e2	-0.03775967
203	0xbca486fd	-0.020083899
204	0xbd95d56f	-0.073161
205	0x3dd42723	0.10359027
206	0xbd332761	-0.043738727
207	0x3da0f4d2	0.07859196
208	0x3c79b551	0.015240983
209	0x3d129b1e	0.035792463
210	0xbdf5e5e8	-0.12006742
211	0x3dd0a998	0.101885974
212	0x3d2081c8	0.03918627
213	0xbc6be64e	-0.014398171
214	0xbd1b0774	-0.037848905
215	0xbda173d7	-0.07883423
216	0x3ddf6666	0.10908203
217	0xbdc8f224	-0.0981181
218	0x3e092c7c	0.13395876
219	0x3d9e3afc	0.07726094
220	0x3d9fd50a	0.07804306
221	0xbce876dc	-0.028376989
222	0x3d9c83d6	0.07642333
223	0xbd4abc90	-0.049496233
224	0xbdcbf83a	-0.09959455
225	0x3d7c3955	0.061578114
226	0x3d9d3a95	0.07677189
227	0xbd918b12	-0.07106604
228	0x3d2e729b	0.042589765
229	0x3df4a143	0.11944821
230	0xbc7fb1c2	-0.015606346
231	0xbdfe0fb7	-0.12405341
232	0x3d867f9d	0.06567309
233	0x3d8c097f	0.06837749
234	0xbbcedb22	-0.0063127438
235	0x3dc77a99	0.097401805
236	0x3d96921b	0.07352086
237	0x3d5eb5e4	0.054372683
238	0xbdbfa282	-0.09357168
239	0x3d9fef3c	0.07809302
240	0xbd522104	-0.051301017
241	0xbc4b2ead	-0.012401265
242	0xbd9147f4	-0.07093802
243	0x3dd6df2d	0.10491786
244	0x3d62efee	0.055404596
245	0xbd9bbbdd	-0.076041915
246	0x3d49021d	0.04907428
247	0x3d8df228	0.06930953
248	0xbd8d0660	-0.068859816
249	0x3ddc3389	0.10752017
250	0xbaacd450	-0.0013185833
251	0xbd7b4fa7	-0.06135526
252	0xbc8c5e10	-0.017134696
253	0x3b78610d	0.0037899644
254	0x3d4071bb	0.04698346
255	0xbdbf2c4a	-0.09334619

lstm.bias_ih_l0 f4 [256]
0	0xbdd836f5	-0.10557357
1	0x3d291d68	0.04128781
2	0x3d358310	0.044314444
3	0xbc3498f3	-0.011022794
4	0x3da9302e	0.08261143
5	0x3d52bac9	0.051447663
6	0x3cb2f573	0.021845555
7	0x3d9d5291	0.07681764
8	0xbde461c5	-0.111514606
9	0xbd051e02	-0.03249932
10	0xbd93e2a8	-0.072209656
11	0x3da01ee2	0.078183904
12	0x3d1a32b0	0.037645996
13	0x3dc96b1c	0.098348826
14	0xbdb400e9	-0.08789236
15	0x3dc8390e	0.09776507
16	0xbca7ff24	-0.020507403
17	0xbbc6b977	-0.0060645896
18	0xb8b238a0	-8.498249e-05
19	0xbdce2c53	-0.10067048
20	0xbddf5fab	-0.10906919
21	0x3da14a66	0.078755185
22	0xbdf38e0f	-0.1189233
23	0x3cb4b846	0.022060525
24	0xbe061c85	-0.13096817
25	0x3db0172a	0.08598168
26	0xbd9dfb35	-0.077139296
27	0xbd33abe0	-0.043865085
28	0x3de9689c	0.11396906
29	0xbdda97b2	-0.10673465
30	0xbddc0db5	-0.10744802
31	0x3db10093	0.08642688
32	0x3d263ec8	0.040587217
33	0x3d9f3fb1	0.0777582
34	0x3dea9f64	0.114561826
35	0xbd9cff92	-0.07665934
36	0x3ddb0991	0.10695184
37	0xbd41d6e6	-0.047324084
38	0xbcb879ed	-0.022519076
39	0x3d6b01ce	0.057374768
40	0xbd88bfa2	-0.06677176
41	0xbc3ae3f5	-0.011406888
42	0xbdaea163	-0.08526876
43	0xbda16fc7	-0.07882648
44	0xbc915e0f	-0.017745046
45	0x3b3d15a6	0.0028852015
46	0xbd3d94fb	-0.046284657
47	0x3d3f4272	0.046694227
48	0x3cd5763b	0.026057353
49	0x3d73ab27	0.059489395
50	0x3d8aec25	0.06783322
51	0x3e0798ed	0.1324193
52	0xbd2d2f37	-0.042281356
53	0xbccb29f2	-0.024800275
54	0xbd2c190d	-0.042016078
55	0xbc742c7c	-0.014903184
56	0x3d55ef9e	0.05223047
57	0x3e00ba8c	0.12571162
58	0xbd9962a2	-0.07489516
59	0xbd466d14	-0.04844387
60	0x3df3a20a	0.11896141
61	0xbd3821d0	-0.04495412
62	0xbcb40bbe	-0.021978255
63	0xbde48540	-0.11158228
64	0xbc237a3b	-0.0099778725
65	0x3ddf9169	0.10916407
66	0xbc073259	-0.00825175
67	0x3dcdb32e	0.100439414
68	0xbda81c0d	-0.08208475
69	0xbdfe4055	-0.12414614
70	0xbe0280ae	-0.127444
71	0x3dc38c91	0.09548295
72	0x3df9f910	0.12205708
73	0x3dc2165f	0.09476923
74	0x3d96b360	0.07358432
75	0xbda8001a	-0.08203144
76	0x3d7089c4	0.058725134
77	0x3d8a3de4	0.06750086
78	0xbd7f1f0c	-0.062285468
79	0x3d2063fa	0.039157845
80	0xbd0aa241	-0.033846144
81	0xbdf4204a	-0.11920221
82	0xbd870ee4	-0.06594637
83	0x3d82bfb2	0.06384219
84	0x3ceccfd1	0.028907688
85	0x3ce1a301	0.027543547
86	0xbd16890b	-0.036751788
87	0xbd636059	-0.055511806
88	0x3d93898f	0.072039716
89	0xbdedc25e	-0.11609338
90	0x3db62099	0.08892936
91	0x3df0f6cb	0.11765822
92	0x3dcd7e4e	0.10033856
93	0x3cfa2c91	0.030538829
94	0xbdc0dcef	-0.0941714
95	0x3cfe159e	0.031016167
96	0xbd5be36f	-0.053683694
97	0xbd9f46d3	-0.077771805
98	0xbc66ff53	-0.01409896
99	0x3cc95af6	0.024579506
100	0xbe03cd49	-0.12871279
101	0x3c863f9b	0.016387751
102	0xbdc16282	-0.09442617
103	0x3dbfb980	0.09361553
104	0x3d8b3051	0.06796325
105	0x3d9d8231	0.07690848
106	0xbd46bea8	-0.048521668
107	0xbdc64385	-0.09680847
108	0xbde5d666	-0.11222534
109	0x3cd1b422	0.02559859
110	0xbd959a90	-0.07304871
111	0xbdd80228	-0.10547286
112	0xbbb32d1e	-0.005468025
113	0x3cb832b0	0.022485107
114	0x3bf49702	0.0074642906
115	0xbd7d706a	-0.061874785
116	0xbd29d788	-0.041465312
117	0xbd4f36ac	-0.05058925
118	0x3cd2afeb	0.02571865
119	0xbd8c081c	-0.06837484
120	0x3d9f27ab	0.07771238
121	0x3df0b51a	0.117532924
122	0xbe02cf3a	-0.12774363
123	0xbc9f340a	-0.019433994
124	0xbd73412d	-0.05938833
125	0x3dae29b9	0.08504052
126	0xbd3319e1	-0.043725852
127	0x3d40766e	0.046987943
128	0x3d83a7fc	0.06428525
129	0x3d019ae5	0.03164186
130	0xbc312d8a	-0.01081408
131	0x3d22055d	0.039555896
132	0x3dc12f6b	0.094328724
133	0xbdc09970	-0.09404266
134	0x3dd29a6d	0.10283361
135	0x3ce86f36	0.028373342
136	0xbe06b383	-0.13154416
137	0xbda587ea	-0.08082564
138	0xbde74ca3	-0.11293914
139	0x3dcfd009	0.101471014
140	0xbd62f676	-0.055410825
141	0xbc41c415	-0.011826535
142	0x3dc25e00	0.09490585
143	0x3d32a475	0.04361387
144	0xbcd09e7e	-0.0254662
145	0x3de494f2	0.111612216
146	0x3de953df	0.1139295
147	0x3dcea442	0.100899234
148	0xbbdf6a04	-0.006818058
149	0x3e037630	0.12838054
150	0xbda801c8	-0.08203465
151	0xbdfea160	-0.124331236
152	0x3db03381	0.086035736
153	0xbb6dcc5b	-0.0036285135
154	0xbc1d4170	-0.009598121
155	0xbde2bc28	-0.11071044
156	0x3cfeb102	0.031090263
157	0x3d9ffa79	0.07811446
158	0x3bb55b8f	0.0055345963
159	0x3d429b4e	0.04751139
160	0x3d7cd6d9	0.061728332
161	0xbe06a283	-0.13147931
162	0x3c7cfaf9	0.015440696
163	0x3c006083	0.00783551
164	0xbde7747b	-0.11301514
165	0xbd9210a8	-0.07132083
166	0x3cda062c	0.026614271
167	0xbdf5bc3d	-0.11998794
168	0xbcd3a6f5	-0.025836447
169	0xbd2d9276	-0.042376004
170	0xbcb6467a	-0.022250403
171	0xbd672ea5	-0.056440968
172	0xbdeb4258	-0.114872634
173	0xbd464908	-0.04840949
174	0x3d882a7e	0.0664873
175	0xbdb1c93d	-0.08680961
176	0xbdd58c29	-0.10427124
177	0xbd196c52	-0.037456818
178	0xbdcdb2d9	-0.10043878
179	0xbc5aa619	-0.013345265
180	0xbca73f6c	-0.020415984
181	0x3d46b322	0.048510678
182	0xbd97231a	-0.07379742
183	0xbb52bd7c	-0.0032156399
184	0xbdf07cb5	-0.11742536
185	0xbd8e38de	-0.0694444
186	0xbd7d1100	-0.06178379
187	0xbda87154	-0.082247406
188	0xbd30476c	-0.043036863
189	0xbda3276b	-0.07966503
190	0x3ce1b0e0	0.02755016
191	0x3b99c50f	0.0046926807
192	0x3c17ca42	0.009264531
193	0x3dd76b5d	0.10518525
194	0x3dfae12c	0.122499794
195	0xbd3809d5	-0.04493125
196	0x3d50f624	0.051015988
197	0xbd24a849	-0.04019955
198	0x3ca32f51	0.019920023
199	0x3bc0a568	0.005879093
200	0x3da5f5f0	0.081035495
201	0x3cd78de8	0.026312783
202	0x3c7e560b	0.015523444
203	0x3cf93f02	0.030425552
204	0xbcfe2a8a	-0.031026144
205	0xbd9483cc	-0.07251701
206	0xbd4e6b7a	-0.050395466
207	0xbe0499df	-0.12949322
208	0xbd03143e	-0.032001726
209	0xbe05f241	-0.13080694
210	0x3d2d1e00	0.04226494
211	0x3dd4b609	0.10386283
212	0x3cc28abf	0.0237478
213	0x3c8b0a36	0.016972642
214	0xbd559eb2	-0.052153297
215	0x3ccc9ff0	0.024978608
216	0x3c946953	0.018116629
217	0x3d2ce3ab	0.04220931
218	0xbd2190ff	-0.03944492
219	0xbd98a526	-0.074533746
220	0xbdd2a252	-0.102848664
221	0x3d5f2c91	0.05448586
222	0xbda0048c	-0.07813367
223	0x3d2e43d7	0.042545166
224	0xbcdd2c5f	-0.026998697
225	0xbc39c74e	-0.011339022
226	0xbd1667fe	-0.03672027
227	0x3ced65a8	0.028979138
228	0xbdd9d2ae	-0.10635887
229	0xbe05516d	-0.13019343
230	0x3d62385a	0.055229522
231	0x3d724b46	0.059153818
232	0xbd6906d1	-0.056891266
233	0x3dc52ddc	0.096278876
234	0xbdd37467	-0.10324936
235	0xbc02ab58	-0.007975422
236	0xbd9cbf4a	-0.07653673
237	0xbd4f4085	-0.05059864
238	0xbcc640bf	-0.024200795
239	0xbda461cd	-0.080264665
240	0xbd950699	-0.07276649
241	0x3cdddf30	0.027083963
242	0x3da57e1b	0.08080693
243	0x3db7f979	0.0898313
244	0x3ded0a9a	0.11574288
245	0x3dbe29b1	0.09285296
246	0x3db0ebe2	0.08638741
247	0xbd37ad43	-0.04484297
248	0xbc947b0d	-0.018125081
249	0x3d6c9cb9	0.05776665
250	0xbdf9203a	-0.1216435
251	0xbd37f360	-0.044909835
252	0x3b47d136	0.003048969
253	0x3cf48c95	0.029852191
254	0xbdb57550	-0.08860266
255	0x3de235b0	0.11045396

lstm.bias_hh_l0 f4 [256]
0	0x3db20edf	0.08694243
1	0x3df22032	0.11822547
2	0xbdb41927	-0.0879386
3	0x3dc90311	0.09815038
4	0x3de6312c	0.112398475
5	0x3dc01ad7	0.09380119
6	0x3de1d0c8	0.1102615
7	0xbdc350e5	-0.09536914
8	0x3d9a1305	0.07523159
9	0x3d98fdbb	0.0747027
10	0xbe04b45b	-0.12959425
11	0x3d8103cb	0.062995516
12	0xbe071eec	-0.1319539
13	0xbda2aed4	-0.07943502
14	0xbd9e1001	-0.07717896
15	0x3d187b89	0.037227187
16	0x3db7872e	0.0896133
17	0x3d3f4135	0.046693046
18	0x3dd9beaf	0.10632073
19	0x3d69539a	0.056964494
20	0x3d2bef1f	0.04197609
21	0xbcb8251d	-0.022478634
22	0xbdf950eb	-0.12173637
23	0xbd0b3b62	-0.03399218
24	0xbd84b95e	-0.064806685
25	0xbd0cc054	-0.034363106
26	0xbd95b877	-0.073105745
27	0x3d0a13f4	0.033710435
28	0xbde7e6e2	-0.11323334
29	0xbd08a886	-0.03336384
30	0x3cb64982	0.022251848
31	0x3dd378ad	0.103257515
32	0x3d7eec78	0.062237233
33	0xbcc075e3	-0.023493713
34	0xbda89b20	-0.08232713
35	0x3d54e70d	0.05197816
36	0xbd80095c	-0.06251785
37	0x3d57c27e	0.052675717
38	0xbd9fcbe6	-0.078025624
39	0x3cf31b3f	0.029676078
40	0xbdce9750	-0.10087454
41	0xbdf63752	-0.1202227
42	0x3dc6ca01	0.09706498
43	0xbd3d0cc0	-0.046154737
44	0x3d152c32	0.0364191
45	0x3af36d4c	0.0018572002
46	0x3d395f31	0.045256797
47	0xbddc90ae	-0.10769783
48	0xbe00786a	-0.12545934
49	0xbdf425d6	-0.11921279
50	0x3db9772a	0.09055932
51	0x3e058a9d	0.13041158
52	0xbcf97eaf	-0.030455915
53	0xbd98e6e1	-0.07465912
54	0xbc35ccf4	-0.011096228
55	0x3d7a05ca	0.061040677
56	0x3dca87fe	0.0988922
57	0x3e0721e6	0.13196525
58	0xbce3526e	-0.027749266
59	0xbe036acc	-0.12833709
60	0xbd2fd388	-0.04292634
61	0xbdb809fb	-0.089862786
62	0xbddadfd3	-0.10687222
63	0x3c69e62a	0.014276067
64	0x3d10be50	0.035337746
65	0xbd9b8113	-0.07592978
66	0xbdb5f384	-0.088843375
67	0xbd1e982d	-0.038719345
68	0x3e021f66	0.1270729
69	0xbc2c8cfd	-0.010531661
70	0xbd9835de	-0.07432149
71	0xbc5c8635	-0.013459732
72	0xbd5274f5	-0.05138107
73	0x3d89a0bd	0.067201115
74	0xbdba08c2	-0.09083702
75	0xbc04e055	-0.008110126
76	0xbd074ba3	-0.033031117
77	0xbd5ba1aa	-0.05362097
78	0xbd9a1100	-0.07522774
79	0xbd215ffe	-0.039398186
80	0xbdcbdc09	-0.09954078
81	0xbc943245	-0.018090377
82	0x3da8d7b8	0.0824427
83	0xbd94142a	-0.072304085
84	0xbdfb5844	-0.12272695
85	0x3ccc1fc9	0.0249175
86	0xbc37de20	-0.011222392
87	0x3df19697	0.11796301
88	0xbdd12e53	-0.10213914
89	0x3d86ec1a	0.065880015
90	0x3dbe02d5	0.09277884
91	0xbd51b6e5	-0.051199812
92	0xbcc34295	-0.02383546
93	0xbc7c83ee	-0.015412314
94	0x3dc4b9c5	0.09605745
95	0x3da3c60f	0.07996761
96	0x3cfafa2a	0.030636866
97	0xbd0b267e	-0.033972256
98	0x3dd485d3	0.103770874
99	0x3ca73626	0.020411562
100	0x3d30f045	0.04319789
101	0xbdc19df7	-0.094539575
102	0x3c303731	0.010755346
103	0x3c55caf8	0.01304888
104	0x3dae58f1	0.08513058
105	0xbc2b9e53	-0.010474759
106	0xbd3f1580	-0.046651363
107	0x3d562205	0.052278537
108	0x3d294adc	0.041331157
109	0x3d27f4cd	0.041004945
110	0xbdefbca4	-0.11705902
111	0xbd5ff1e5	-0.054674048
112	0xbd40e3c8	-0.04709223
113	0xbc836a71	-0.016041966
114	0x3d033ec9	0.0320423
115	0x3bd81af6	0.006595011
116	0x3d39034c	0.04516916
117	0xbd9b3ad5	-0.07579581
118	0xbe06430b	-0.13111512
119	0x3da61f54	0.08111444
120	0x3dd965f9	0.10615153
121	0xbd4c9579	-0.049947236
122	0xbdb6409d	-0.08899043
123	0x3cbbd955	0.02293078
124	0x3cc3a517	0.023882432
125	0xbb96eaee	-0.0046056425
126	0xbd152c3a	-0.03641913
127	0xbca5cb7c	-0.02023863
128	0xbd8c5676	-0.068524286
129	0xbc8e27c6	-0.01735295
130	0x3dd8e51f	0.105905764
131	0xbdd24f2f	-0.10269009
132	0xbd0c229b	-0.03421269
133	0x3d10a03d	0.035309065
134	0x3d52a595	0.051427443
135	0x3cdb0226	0.026734423
136	0x3d35a904	0.04435064
137	0x3dd1f0b0	0.102509856
138	0x3d70eac5	0.058817644
139	0xbda8772d	-0.08225856
140	0x3db1218d	0.086489774
141	0x3db3fcf6	0.08788483
142	0x3d089561	0.033345584
143	0xbd585aa7	-0.052820828
144	0xbdd56937	-0.10420459
145	0xbd510836	-0.05103322
146	0x3d60b155	0.054856617
147	0x3d849812	0.064743176
148	0xbdc2ef0e	-0.09518252
149	0xbdbc1918	-0.09184474
150	0xbd1b3179	-0.037888978
151	0x3c916dd0	0.017752558
152	0xbdafc4ed	-0.085824825
153	0xbd6b8a14	-0.05750473
154	0xbb70a240	-0.0036717802
155	0xbdcb7f00	-0.09936333
156	0xbd39d409	-0.045368228
157	0x3dfc9aa7	0.12334185
158	0x3d92c585	0.0716658
159	0xbda73fd7	-0.08166473
160	0xbde630c3	-0.11239769
161	0xbc8c4d37	-0.017126663
162	0xbc940874	-0.018070437
163	0x3d8ddc0d	0.06926737
164	0x3dc4111d	0.095735766
165	0x3daf8408	0.08570105
166	0xbcc4a624	-0.024005003
167	0x3d390737	0.045172896
168	0xbcaa484d	-0.020786429
169	0xbd5ed17a	-0.05439899
170	0x3d966b04	0.0734463
171	0xbd8ae7c7	-0.06782489
172	0xbc40b4d4	-0.011761863
173	0xbbc9d0cd	-0.006158924
174	0x3d2b8773	0.04187722
175	0x3d66f903	0.05638982
176	0x3cedbb35	0.029019931
177	0x3dd3b436	0.10337107
178	0x3d76f895	0.06029566
179	0x3e019264	0.126535
180	0x3d6f6d44	0.058453813
181	0x3d39497e	0.045236103
182	0x3c4e1e24	0.012580428
183	0xbd8753a2	-0.066077486
184	0x3d9b5f0f	0.0758649
185	0x3d872ca0	0.066003084
186	0xbdcca752	-0.09992851
187	0x3d6daafb	0.058024388
188	0x3de8963c	0.1135678
189	0x3d36b805	0.04460909
190	0x3dbe1435	0.09281198
191	0x3da84f3d	0.082182385
192	0x3ddf0522	0.10889651
193	0x3c6659d5	0.014059504
194	0xbc266b53	-0.010157424
195	0x3d82044c	0.06348476
196	0xbbbe083c	-0.0057993215
197	0x3dc85188	0.09781176
198	0x3d329867	0.043602373
199	0xbdc04a2d	-0.09389148
200	0x3e015276	0.12629113
201	0xbdd6b4c0	-0.10483694
202	0xbd8b35b2	-0.06797351
203	0xbd31472e	-0.043280773
204	0xbd401431	-0.046894256
205	0x39b2db40	0.0003411416
206	0xb9832280	-0.00025011972
207	0x3a5ae1d4	0.0008349691
208	0x3cc59e76	0.024123412
209	0x3db868ac	0.090043396
210	0x3e02a38a	0.12757698
211	0x3a3e90a4	0.0007269478
212	0x3de1d851	0.11027587
213	0xbdf511cf	-0.11966287
214	0x3d244eda	0.04011426
215	0x3dc41fe6	0.09576397
216	0xbc32a3aa	-0.010903278
217	0xbdc1799a	-0.09447022
218	0x3da6f129	0.081514664
219	0xbd9ae2d0	-0.07562792
220	0xbde98f40	-0.11404276
221	0x3e087608	0.13326275
222	0xbce1faf0	-0.027585477
223	0x3d264e57	0.040602054
224	0xbd8cd9a2	-0.06877448
225	0xbd67af3e	-0.05656361
226	0xbdd319ec	-0.103076786
227	0xbde708ee	-0.11281
228	0xbe06abbf	-0.13151453
229	0xbdc7e341	-0.09760142
230	0x3d4fff7e	0.050780766
231	0xbe06c915	-0.13162644
232	0xbdb91a89	-0.09038264
233	0xbdc589b6	-0.09645407
234	0x3d859c41	0.06523944
235	0x3ceb5383	0.028726345
236	0x3d980c6e	0.07424246
237	0xbddc7eae	-0.1076635
238	0x3d5249ac	0.05133979
239	0x3caa01b9	0.020752775
240	0xbdcf6eb1	-0.101285346
241	0xbde22061	-0.11041332
242	0xbc88baa3	-0.016690558
243	0xbbb7d928	-0.005610604
244	0xbdc1afcc	-0.09457359
245	0x3e02cc1f	0.12773179
246	0x3c9d4486	0.019197714
247	0x3b89a25c	0.004200263
248	0x3e09a687	0.13442431
249	0xbdd263dd	-0.10272954
250	0xbdd0c220	-0.101932764
251	0xbd82fd60	-0.06395984
252	0x3db0ff99	0.086425014
253	0xbde4ac39	-0.11165661
254	0xbd2dc4ea	-0.04242412
255	0xbd54e02c	-0.0519716

linear.weight f4 [1, 64]
0	0xbc219732	-0.009862708
1	0xbcdc4f85	-0.026893387
2	0x3e032d8a	0.1281034
3	0xbd94cf16	-0.07266061
4	0x3d54b912	0.05193431
5	0x3ce7b9d1	0.028286846
6	0xbdbf1a7e	-0.09331225
7	0x3d961177	0.0732755
8	0xbdb3d29d	-0.08780406
9	0xbd7fcaae	-0.06244915
10	0xbbf3fa51	-0.0074456115
11	0xbe03b20b	-0.12860887
12	0xbddce2ae	-0.10785423
13	0xbd26fea2	-0.04077018
14	0x3dc8b09d	0.09799311
15	0x3db6cc5d	0.08925698
16	0x3bff4f46	0.0077914326
17	0xbdbe063e	-0.09278534
18	0x3df584da	0.1198823
19	0x3d6b2ee2	0.057417758
20	0x3ddd4372	0.1080388
21	0x3d1116cb	0.035422128
22	0x3d2808fd	0.041024197
23	0x3b8bbea4	0.0042646695
24	0xbd8f87fd	-0.070083596
25	0x3dd78cb9	0.105248876
26	0xbd559ff6	-0.052154504
27	0x3c4e7104	0.012600187
28	0xba370d43	-0.0006982872
29	0xbbe1ad42	-0.006887109
30	0xbd976d70	-0.073939204
31	0xb860f960	-5.363801e-05
32	0xbd021bf6	-0.031764947
33	0xbd97c0c1	-0.07409812
34	0x3c2a1c21	0.010382683
35	0xbd8e71ac	-0.06955275
36	0xbd7396af	-0.059469875
37	0xbde7e0e6	-0.11322193
38	0xbcdbfb16	-0.026853126
39	0xbd86f14f	-0.06588995
40	0x3d366d68	0.04453793
41	0xbd1b482d	-0.03791063
42	0x3d05d325	0.032672066
43	0x3da6e0ce	0.08148347
44	0x3d50c3d8	0.05096802
45	0xbc9906a0	-0.018679917
46	0x3d9212d9	0.07132501
47	0xbcbb9db0	-0.02290234
48	0x3dd7ecd0	0.10543215
49	0xbcff7582	-0.031183962
50	0xbda28387	-0.07935243
51	0x3debd8ab	0.115159355
52	0x3d3c9f40	0.04605031
53	0x3d5e3a38	0.05425474
54	0x3d89c454	0.067269
55	0xbb91cb38	-0.0044492744
56	0xbd2d3255	-0.04228433
57	0x3e02824d	0.12745018
58	0x3dbf5278	0.093419015
59	0x3d2b11b3	0.041764926
60	0x3ce20d8c	0.02759435
61	0x3d81fe23	0.06347301
62	0xbd1cbf00	-0.03826809
63	0xbde70305	-0.11279873
